demos/model/model.pth (torch, 17216 bytes, 4 tensors)

linear1.weight f4 [256, 11]
00000000: 1b22 023f 0715 ce3e 6186 59be f3dc 91bd
00000010: f1c3 d9bd d47b 963d 1c9e b3be fcbf 9b3e
00000020: 44c7 963e 902f eb3d f741 053f 1fbe 813a
00000030: 0578 933e 8a7e 9c3d 399f 80be 901c 9cbe
00000040: 397b a33e 99b9 ce3d ef9d 263e 3100 9c3e
00000050: 9276 29be a03a a4be ddb3 883e b331 d03c
00000060: 91bc 46bd 2005 aa3d 9162 7d3d d622 953d
00000070: 5374 2fbd e347 5b3e 00b8 483e b15f 8e3d
00000080: 7659 1c3d 0c2b c9be e04e 123f ce35 763e
00000090: f268 a0bd 222a b1be a3f1 8ebd 9e1d 1abe
000000a0: 9efb 153c 9ac5 38bd 0b08 d5bd 42ae 7e3e
000000b0: 123b 80be ca57 1cbd 41bb c53e c84d 15be
000000c0: 9741 3dbe 3ecb 38be 1975 743e 6cf5 9b3d
000000d0: 57bb d9be ff26 cdbe 284e 8ebd 2e26 d43d
000000e0: 10ea 2fbe 8b76 ed3d 1948 dabe 1a92 bd3d
000000f0: a8e2 f0bd 891d 483d ef5a af3e da94 d9be
00000100: 0f14 ecba 2281 803d 8c64 6e3e b0a6 f4bd
00000110: 4741 a83e 47ac 07be bef4 503c 4b60 383d
00000120: f1ae e03c 8d88 933d 2c61 ea3d 76c8 d73d
00000130: 118e 913e e4d7 8a3e 9869 303e b0c4 683e
00000140: 3f99 4fbd 5e66 a53d 5396 dd3d 7df9 cb3d
00000150: a341 e53e a66a 8b3e 1992 d33e ecfa 993e
00000160: d306 c5bd 2c32 3fbe 8648 1e3e 0d27 d23e
00000170: dfeb 97be 5912 3cbe acb2 13be 2a46 13bf
00000180: 10eb a5bc 0fde 133e 43a8 b7be 388c 39bd
00000190: 55d2 903d a841 86bd 482e 80be 4ff0 3bbe
000001a0: 51e0 88bd 29f5 98be 2b9b 873d 7794 27be
000001b0: 22dc 053c 2279 93be b0b7 c13e f78b 333d
000001c0: 15e9 193f fc97 92bd 2b2f 5e3e cc3e 6ebe
000001d0: 9df9 70bc c3b7 e43d fa51 22be ee26 863e
000001e0: f051 913d da19 98be 2133 ff3c 09a7 c0be
000001f0: 2760 ab3b cfe2 853e 67e2 5d3e 6b24 133d
00000200: 90d4 243e 6b80 90be 1e2e 2e3d f1a8 163c
00000210: 7f19 8b3e 24b2 053c f7f5 873e 7a5b 333d
00000220: 00fb ec3d d11c 083e 1596 1bbd fc8f c13e
00000230: aa66 b83e b556 283e d638 8b3e 9876 2c3e
00000240: dfe9 8b3d 93c6 f53e 1c90 d4bd e526 fabd
00000250: ac4d b1bd 3800 0e3d 7606 a73e 24be ba3e
00000260: d920 b63e b791 a33e 82c3 83bd a77d 003f
00000270: 0c6f 0c3f af1f 56be f618 023e 36ef 193e
00000280: d999 b23c f11e 19be b80d c93d 011d 353d
00000290: 3ce5 1b3e 88f6 643e de3d 293e 70f3 f3be
000002a0: 12f5 acbe f967 f43d 9eac 37be 8ffa 85bc
000002b0: c65d 083e 2a88 c8be 4179 033d 9540 17be
000002c0: bc38 a63e d4a7 373d 9b01 1c3e be8d 26be
000002d0: 4128 0d3e c448 d43e def0 1abe ab1f da3e
000002e0: 77cc 713e 8e0d 9fbd 7550 f93e 9e12 cebd
000002f0: 996d 3ebe 016a 993e 38d8 52bd bcfc a23e
00000300: ec63 c7be 00d3 823e c696 653c 84b7 68bd
00000310: 0b81 14bf 7a1b e6bd 2b60 fa3d bb0a e03a
00000320: 59d8 523e 2446 d23e 1bce 80be b190 9f3d
00000330: 8a77 89be cd84 b4be 1843 ec3e f509 de3d
00000340: 408c ea3e 09d2 013c 02f6 a03c aea8 23be
00000350: 127f 9e3e 71a9 d1be bd5a 9e3e adb5 c2be
00000360: 7a86 5fbe f6d6 e83e 3a9f 8cbe 05a8 cc3e
00000370: 22d1 8dbe 728a 4fbc e15a 763b 9ba4 4abe
00000380: 5cc0 ba3d 8e63 28be 815d f53d 24e0 5b3e
00000390: d8ca a8be b74f 75bd 018c e5bd 5881 40bd
000003a0: b2b8 1cbd a475 2e3e 1e6d 16bf e665 0cbf
000003b0: ce1a 7e3d 5403 123e e424 19bf 14e1 ccbe
000003c0: b302 8e3e e20d 643e 5b3a d83e acc3 653e
000003d0: 65c4 bfbe dddf 913e 4ca3 78be 8cbc ba3b
000003e0: b94d 8c3e 499e 70be 23e7 e93d 6f5c 4cbe
000003f0: 6c99 ae3e 8bbf 953e 58eb c3be 9632 0d3f
0.5083329 0.40250418 -0.21242668 -0.07122221 -0.10633076 0.07347837 -0.35081565 0.3041991
0.29448903 0.11483681 0.5205378 0.000989858 0.28802505 0.07641323 -0.25121477 -0.3049054
0.3192995 0.10093994 0.16271184 0.30468896 -0.16549137 -0.32075977 0.26699725 0.025414323
-0.048519675 0.08301759 0.06186158 0.07282035 -0.042835545 0.21414141 0.1960144 0.069518454
0.038171254 -0.39290655 0.57151604 0.24043962 -0.07832517 -0.34602457 -0.06979682 -0.1505036
0.0091542285 -0.045110323 -0.10401925 0.24871162 -0.25045067 -0.03816966 0.38619426 -0.14580452
-0.18482052 -0.1804628 0.23872794 0.0761517 -0.4252574 -0.40068814 -0.06948501 0.10358845
-0.17179132 0.11594876 -0.4263313 0.09256382 -0.11761981 0.048856292 0.34249064 -0.42496377
-0.0018011349 0.0627463 0.23280543 -0.119458556 0.32862303 -0.13249312 0.012753664 0.045013707
0.027427169 0.07203779 0.11444315 0.10536282 0.284287 0.27117836 0.17227781 0.2273128
-0.050683256 0.080761656 0.10819688 0.099596955 0.4477664 0.27229804 0.413224 0.3007425
-0.09620442 -0.18671483 0.15457353 0.41045418 -0.29672143 -0.18366374 -0.14423627 -0.57528937
-0.020253688 0.14440177 -0.3587056 -0.04529974 0.07071368 -0.06555492 -0.2503531 -0.18353389
-0.0668341 -0.29874542 0.06621393 -0.16365229 0.0081701595 -0.28803355 0.37835455 0.043834653
0.6012128 -0.07157895 0.2169768 -0.23266143 -0.01470795 0.11167862 -0.15851584 0.26201576
0.070957065 -0.29707223 0.03115231 -0.37627438 0.005229968 0.26149604 0.21668397 0.035923403
0.16096711 -0.28222975 0.04252445 0.009195552 0.2716789 0.008160148 0.26554844 0.04378841
0.11571312 0.13292243 -0.037984926 0.37805164 0.36015826 0.16439326 0.271918 0.16842115
0.06831717 0.48003063 -0.10379049 -0.1221445 -0.08657393 0.034668177 0.32622117 0.3647319
0.35571936 0.3194711 -0.064337745 0.5019173 0.54856944 -0.20910524 0.12704834 0.15032658
0.021801876 -0.1495321 0.0981707 0.044217113 0.15224165 0.22359669 0.16527507 -0.47646666
-0.33780724 0.11933894 -0.17936942 -0.016354827 0.13317022 -0.39166385 0.03209806 -0.1477073
0.3246516 0.044837788 0.15234987 -0.16265008 0.13784887 0.41461766 -0.15130946 0.42602286
0.23613153 -0.07766257 0.48694196 -0.10062145 -0.18596496 0.29963687 -0.051475734 0.31833446
-0.38943422 0.25551605 0.014012998 -0.05681564 -0.58009404 -0.112357095 0.12225374 0.0017093042
0.20590343 0.41069138 -0.25157246 0.077912696 -0.26849014 -0.3525757 0.46144938 0.10841743
0.45810127 0.007923611 0.019648556 -0.15982315 0.30956322 -0.40949586 0.30928603 -0.38029233
-0.21828642 0.45476502 -0.2746523 0.3997194 -0.27698618 -0.012667285 0.003759079 -0.19789355
0.09118721 -0.16444227 0.11980725 0.21472222 -0.32967257 -0.059890475 -0.11208344 -0.04699835
-0.038262077 0.17037064 -0.5876025 -0.54842985 0.06203728 0.14259082 -0.59821916 -0.4001547
0.27736434 0.22270921 0.42232022 0.22437924 -0.37454525 0.28491107 -0.24281043 0.005698746
0.27403048 -0.23497881 0.11421039 -0.19957136 0.34101427 0.29247698 -0.3826549 0.55155313

linear1.bias f4 [256]
00000000: e42d 33be 968a 3cbe 6f2d 0abe 2f44 693d
00000010: 2eb5 903d acfd c0bc 8661 06be 3887 ccbe
00000020: a86e e3bc 8d4a f1bd c5cc c0bd 6d4d 4abe
00000030: 4c61 86be 498c 76be 7ffa 223d 83fa ec3d
00000040: 7ac0 afbe 9bdd f53e 2816 3abe 5b0d cdbc
00000050: 208c 9ebc d6a7 743e a932 aabd d281 523d
00000060: f509 963d 8c1c 61be 47d1 6ebe bec9 333d
00000070: e579 65be 6594 0bbe b442 52be 1a3d 163e
00000080: 7cfc c5bd 1324 48be db9e ec3d 35ad debd
00000090: 0d96 85be 44d8 0bbe 7c0c 46be f208 133e
000000a0: 4509 d93e a0fa 27be c56d bc3d 5105 5bbe
000000b0: 9c26 3dbd e613 6dbb 7ef4 a93e e462 633d
000000c0: 158d 00bd 3728 cebc 153a 81be 86fa 22be
000000d0: 62b1 28bd b0f7 0ebe 26e3 84be 720c 78be
000000e0: 0c62 913e 0f2c 463e 8eac ae3c 6bc0 3fbd
000000f0: 7b8b c2bd ae3e 463d 37c2 163e e4ae 1fbe
00000100: 9d0a cf3e b6bf 1c3d 95f8 233e 62e1 773e
00000110: bf91 1fbe e5f8 de3d fc9b 37bb d4ae 55be
00000120: 1b7d 34be 6f3a d0bd 2100 5a3e 290e c53e
00000130: 42f6 88be f304 49be 7496 2d3e 2763 a0bd
00000140: 80b8 8fbe c630 8a3e a203 193e 1a8e 723e
00000150: 17b5 ecbd 352e b83d 07f7 753c 70d7 0fbe
00000160: 7859 80be 0589 7dbd 0a8d 04bc 296d 36be
00000170: 43c6 20be b443 59bd e9d0 18be 7458 43be
00000180: b4da 913e 3db3 42bc cf71 cb3d cd1d 6ebd
00000190: 75ad 723e bf75 fdbd c15c f73d 7403 f0bd
000001a0: e1d8 10be b06a 8b3d 22e4 573d e4f5 55bd
000001b0: 75a9 3ebe f9dd 9d3e 88b7 9a3d d1ac 9d3e
000001c0: 7ba9 6bbe 679c 1e3e 2355 7bbe 59a3 593d
000001d0: 2800 7dbe 3ce1 263e 0246 aabd ea6f 323c
000001e0: afa4 91be bd92 38bd 304c 9a3e 4e42 35be
000001f0: 04b4 0dbe 91fc 023f b6bb 8e3d bd26 43be
00000200: 4f58 983e 4786 31be 7beb 0dbd d6eb 61be
00000210: bef9 cebe e3cb e13c 9f98 81be ad02 0dbe
00000220: 5918 e33d 8087 863e ca45 66be f717 abbd
00000230: 2514 b1be bb45 7fbe 8a3b aa3d fd6d 68be
00000240: ef43 0bbe b23f df3d 0c28 fa3d 7a9a 65bc
00000250: 9294 ee3e cfdb 8b3e 5b0d 6ebd b346 36be
00000260: 5a25 b43d 63a8 6dbd e66b 8bbe dd2c d4bd
00000270: 18db dfbd c5f8 31be 0b83 ba3e ab84 3dbe
00000280: eb36 1fbe 551a 55be 12e1 3ebe 264f 193c
00000290: 42b6 2b3e 5cfe 2b3e ebbb 713d 405e 72be
000002a0: 66eb 0dbe 9173 25bc 8ff8 613e 26e7 e7bd
000002b0: 2fd7 4ebd 1ba3 5c3e b4a2 85be 9f37 67be
000002c0: 0580 50bc ad60 0b3c b667 a5be ea55 4ebe
000002d0: dac3 2bbe 2f22 37be aedc a8bc be04 35be
000002e0: cf12 89bd 8fdf dc3d 2eaa 763c e4bd 833e
000002f0: 8e43 35bc e9bf 42be fc1e ab3e ef39 633e
00000300: 19bb 00be a964 6a3e adc2 733e 6dda dcbd
00000310: 069b d6bd 56c8 30be 13f1 cfbd e858 ebbd
00000320: b678 9ebd b7e0 933d 3d45 b03b 06a8 54be
00000330: 3504 23be 4a83 32bd 4e06 833d bf14 c6be
00000340: 0697 3fbd 6ef3 58bd 6e73 2bbd 01b8 16bd
00000350: f220 47be 5be1 4ebe c0bc 59be 397b f5bd
00000360: d840 f4bd d77a 11be e1e6 34be 7c04 23be
00000370: a239 9ebe 786d 5e3e 45a3 87be fd02 a4be
00000380: 9dec 38be 184b 50be 5c0f b83e d7f2 5dbd
00000390: 00bf 873d 7858 d1bd de4c dc3b 0dc1 6cbd
000003a0: f1d2 dab9 3b66 92bd 89dc 10be 18d8 2cbe
000003b0: bd53 4dbe a89b 71be 9a3f e8bd 08a7 5fbe
000003c0: 44a6 2cbe 1648 683d b341 513e a8c7 0dbe
000003d0: 515b 36bd aaca d1bd 791c bcbd 48b2 1f3e
000003e0: a269 af3e 7f90 d23d 3100 9dbe ddaa 08be
000003f0: 2928 48be 0932 c63d e2e3 a7bd 6d8b 97bd
-0.17497975 -0.18412241 -0.13493894 0.05694979 0.07065807 -0.02355846 -0.1312314 -0.39946914
-0.027762726 -0.117817976 -0.09414057 -0.19756098 -0.26246107 -0.24076952 0.039789673 0.11571219
-0.34326535 0.48020634 -0.18172514 -0.025030782 -0.019353926 0.2389215 -0.08310444 0.051393338
0.07326118 -0.21983546 -0.2332202 0.04389357 -0.2240978 -0.13630827 -0.20533258 0.14671746
-0.09667298 -0.19545011 0.11553737 -0.1087288 -0.26091042 -0.13656718 -0.193407 0.14358881
0.42389885 -0.164042 0.092006244 -0.21388747 -0.0461794 -0.003617519 0.33194345 0.05551423
-0.031384546 -0.02516566 -0.25239626 -0.1591588 -0.04118479 -0.13961673 -0.2595455 -0.24223498
0.28395116 0.19352745 0.021322515 -0.046814363 -0.0949926 0.04839962 0.14722525 -0.15594059
0.40437785 0.038268767 0.16012795 0.2420707 -0.15582941 0.108873166 -0.0028016558 -0.20867473
-0.17625849 -0.10167395 0.21289112 0.38487366 -0.2675038 -0.19630794 0.16951925 -0.07831412
-0.2807045 0.26990336 0.14942792 0.2368702 -0.11557978 0.08993188 0.015012509 -0.14047027
-0.2506826 -0.06189825 -0.008090267 -0.17815079 -0.15700631 -0.053043082 -0.14923443 -0.19076711
0.2848717 -0.011883554 0.09933817 -0.05813389 0.23698981 -0.12375974 0.12078238 -0.11719409
-0.14145233 0.068074584 0.0527078 -0.052236453 -0.1861933 0.30833414 0.07554537 0.3079591
-0.2301387 0.1548935 -0.24544196 0.053134296 -0.24707091 0.16296858 -0.08314134 0.01089094
-0.28445956 -0.045061816 0.3013625 -0.17701074 -0.13838202 0.51166636 0.06969397 -0.19057746
0.29754874 -0.17336379 -0.0346484 -0.2206262 -0.40424913 0.027563041 -0.25311753 -0.13770552
0.11088628 0.26275253 -0.2248756 -0.0835418 -0.34585682 -0.24928944 0.083121374 -0.22698207
-0.13600133 0.10900821 0.122146696 -0.014013881 0.46597725 0.27316138 -0.058118206 -0.17800407
0.08796187 -0.058021914 -0.27230757 -0.103601195 -0.10930461 -0.17380054 0.36428103 -0.1850764
-0.15548293 -0.20810826 -0.18640545 0.009357249 0.16768745 0.16796249 0.059017103 -0.23668766
-0.13859329 -0.010098354 0.22067474 -0.11323385 -0.050498184 0.21546595 -0.26100695 -0.22579812
-0.012725835 0.008506936 -0.32305688 -0.20149961 -0.1677393 -0.17884134 -0.02061304 -0.1767759
-0.066930406 0.10784828 0.015055222 0.25730813 -0.01106347 -0.1901852 0.33422077 0.22190069
-0.12571372 0.22889961 0.23804732 -0.10783849 -0.10478787 -0.17263922 -0.10153403 -0.11491567
-0.077378675 0.07220595 0.0053793476 -0.20767221 -0.15919574 -0.04358224 0.06397687 -0.38687703
-0.046774887 -0.052966528 -0.04185813 -0.036796574 -0.19446161 -0.20203154 -0.21263409 -0.119863935
-0.119264305 -0.14207016 -0.17666198 -0.1591968 -0.30903345 0.21721447 -0.26491752 -0.3203353
-0.18059011 -0.20341146 0.35949218 -0.05418667 0.06628227 -0.10221952 0.0067230305 -0.057801295
-0.00041737364 -0.07148405 -0.14146627 -0.16879308 -0.20051475 -0.23594534 -0.11340256 -0.21841061
-0.168603 0.05670937 0.20435219 -0.13845694 -0.04452068 -0.10243733 -0.09185118 0.15595353
0.3426028 0.10281467 -0.3066421 -0.13346429 -0.1954657 0.09677512 -0.08197762 -0.0739964

linear2.weight f4 [3, 256]
00000000: d2f0 d8be 8942 9dbe 595e a2bc 4e0c c63c
00000010: bd3e 8e3d b475 14be cd6b acbd 8c18 42be
00000020: 0184 8fbe 1de1 0fbc 4dce 6cbe 1831 edbb
00000030: 85bf 51be 03b8 5dbe da6d d63d fe76 66be
00000040: 2a3e fcbe e7b3 de3e 1bd6 c8be 0980 c0be
00000050: 3744 9ebd 5ae6 bc3e fb09 f8bd 0977 f43b
00000060: ea9f 9c3e 0a59 bfbe 3a14 a6be 5787 8ebe
00000070: 2dc0 603e 0239 aebe f730 77be 56ce a03e
00000080: 5ff4 0ebf 970f 6c3d d956 9d3e 6def 0dbf
00000090: be0d fbbc 2359 18bd f9ec 99be 21a7 543e
000000a0: 979a 1c3e 4ea8 3abf 665f 103e 4aec 60be
000000b0: 14ef e6be 6f91 c4be 1bee 9b3e 76a4 85bc
000000c0: 990b f0bd a015 15be 1e62 c1be a376 adbd
000000d0: ffc3 80be 8ea2 00bd 10bb 2cbe fd72 f2be
000000e0: e717 ed3d 12ec 9e3e b6c9 43be 4e20 93bd
000000f0: 08db a8be f35e a5bc 6ff7 f53e 0b7b eabd
00000100: 206c 973e 12ec 0dbf 6297 283e 155a 623e
00000110: efcd 4ebe acaa a13e 6977 a9bd d6ce f4be
00000120: 8245 b0be 4c13 45be 92ce 423c 9878 5d3e
00000130: a998 debc 6c3f 2dbe fd26 9e3d c78b 9bbd
00000140: a553 81be 935c 9e3e b261 3d3e d8f6 ed3d
00000150: 752d 80bc e65a ec3e 2e46 e5bc 1afe 18be
00000160: 5240 16be 285d b1bc 79e9 a93e d3b1 81be
00000170: 2c4b 53be c102 4d3d 40e1 5cbd d3c9 c2bd
00000180: d225 933e 0323 a7bd c0ee 47bd 0e6f d33e
00000190: aad8 ac3d 99dd 70bd 5008 76be 4b26 b63d
000001a0: 1aba a3be 4382 293e a757 ce3b 1ef2 3dbe
000001b0: b6e7 8dbc b07c d8bb d347 08bc d7ba 653e
000001c0: 2265 3fbd bcc0 323e 1f08 babe 8295 be3e
000001d0: 59be 61bc f363 1dbe f981 f8ba 4769 e03e
000001e0: d64b 78be 9536 61be f6f4 db3d 2fee e3be
000001f0: a934 353d 584f 9f3e 7f3b 11bd f382 00bf
00000200: 8c86 d23e 2fa8 00be c53a 98be 7983 cfbd
00000210: 820f 403d 2ed2 11bf 7fdf 9d3d 95b7 d93d
00000220: 0107 c3bd 33b8 8e3e 4809 e93c 5614 1abe
00000230: 94d2 81be 1795 d5bd 200d e3be f56b 263d
00000240: 7f6a 3ebd 6242 ecbe dc88 efbe 2f76 073e
00000250: 05b9 823e 4377 2b3e aa7d bcbe ed31 13bf
00000260: 5f32 b4be cde8 7dbe 70e6 c0be 32cc 1abd
00000270: 5aa5 a4bd 1301 0bbe 771d a33d caf1 1cbf
00000280: 2aa0 073c 84e0 8abe 39c3 adbe eb8d 923e
00000290: 508b dd3d 3dc4 dbbd 9869 2d3d d01f 8c3c
000002a0: 2e06 b9be 6bc5 efbe aa12 773e c4d0 573e
000002b0: 76b5 02be 2c6a 153e 14a2 01be 1147 e6be
000002c0: a7b3 c53e 1510 d6bc 3d43 dd3c 4702 4abb
000002d0: 82d8 31bd 69f0 dbbd d2f8 7dbe dc14 5d3e
000002e0: dc25 51bd d791 a93e 8d5b db3c 45c2 d23e
000002f0: 9803 80bd 918b 6c3c 782a 843e c364 423d
00000300: 7c6b 8dbc 8b5e e23e 54d8 423e 2bd7 e0be
00000310: d60c d2bd 02b2 65be 9893 f1bd 5513 01be
00000320: 3f80 bfbd 8c5c 5a3e ada8 02be ea81 bebd
00000330: 2020 20be 9961 183e 8eaf bc3b e16f 90bc
00000340: 30c5 83bd 3eef 093d d950 0abe 1840 f9bd
00000350: 3867 42bd 7088 c7bd 03aa 99be 94d3 bdbe
00000360: 9acf e9be 1b06 78be c1e6 2cbe 0089 a4be
00000370: 78bb 833c 7030 043f 339e c3be 248c 8abd
00000380: ffb7 13bf d9d0 723e 160b 213e af68 87bc
00000390: 2c18 18bd f45c 7c3e cab8 8e3e 57f8 a5bd
000003a0: 61e5 7d3e 782d 5fbe 4781 21bf 601a 96bc
000003b0: 6a94 d03e 2783 58be 138e ac3d 2018 aabe
000003c0: dfb7 23be baf3 86bd 2ac5 963e a663 c6bd
000003d0: 5bbc 05bf d180 cebd 0487 2b3e 9f46 bf3e
000003e0: cb59 ea3e 8d05 d7bd f94d 5dbc 90c5 583e
000003f0: 2d19 b23c 4df7 b93e b316 56be e633 ee3d
-0.4237123 -0.30714825 -0.01982038 0.02417579 0.0694556 -0.14498025 -0.08418999 -0.18954676
-0.28030398 -0.0087816985 -0.23125573 -0.0072385184 -0.20483215 -0.21652226 0.10470171 -0.2250633
-0.49266177 0.4349663 -0.3922585 -0.37597683 -0.07727855 0.36894494 -0.121112786 0.007460479
0.30590755 -0.3737262 -0.32437307 -0.2783763 0.21948309 -0.34027869 -0.24139772 0.31407422
-0.5584163 0.057632055 0.30730322 -0.5544346 -0.030646201 -0.037194382 -0.30063608 0.2076688
0.15293346 -0.7291306 0.14098892 -0.21965137 -0.45104277 -0.38392207 0.30455098 -0.016313773
-0.11720962 -0.1455903 -0.3777017 -0.08469894 -0.25149533 -0.031405024 -0.16868234 -0.47353354
0.11576825 0.31039482 -0.19119915 -0.07183896 -0.32979608 -0.020186877 0.4804034 -0.1144925
0.2957468 -0.5543834 0.16463998 0.22104676 -0.20195745 0.31575525 -0.08274729 -0.47814053
-0.3442803 -0.19245642 0.0118900705 0.21628034 -0.027172403 -0.16918725 0.0772228 -0.0759502
-0.25259128 0.30930004 0.18494299 0.11619347 -0.015646676 0.461631 -0.027987566 -0.14940682
-0.14672974 -0.021650866 0.33185938 -0.25330982 -0.20634145 0.050051454 -0.053925753 -0.09511151
0.28739792 -0.08160975 -0.048811674 0.41295666 0.08439763 -0.058805082 -0.24026608 0.088940226
-0.31977922 0.16553597 0.00629707 -0.18549392 -0.017322402 -0.006606661 -0.0083179055 0.22434555
-0.046727307 0.17456335 -0.3633432 0.3722344 -0.013778293 -0.15370159 -0.0018959633 0.4383032
-0.24247679 -0.21993478 0.10740082 -0.44517657 0.044239674 0.31115222 -0.03545713 -0.5019981
0.41118276 -0.12564157 -0.29732338 -0.10132498 0.04688979 -0.56961334 0.07708644 0.106307186
-0.0952282 0.27874908 0.028446808 -0.1504682 -0.2535597 -0.10428827 -0.4434595 0.0406303
-0.04648828 -0.46144396 -0.46784103 0.13228677 0.25531784 0.16744713 -0.36814624 -0.57498056
-0.3519468 -0.24795838 -0.3767581 -0.037792392 -0.08039351 -0.13574629 0.07964604 -0.6130644
0.008277932 -0.27124417 -0.33938006 0.286239 0.108175874 -0.10730789 0.04233703 0.017105013
-0.36137527 -0.46830305 0.24128214 0.21075732 -0.12764534 0.14591283 -0.12659484 -0.44976094
0.38613626 -0.026130715 0.0270096 -0.0030824111 -0.04341937 -0.10739214 -0.24801949 0.21589988
-0.051061496 0.3311908 0.026777053 0.4116384 -0.062506855 0.014437572 0.2581365 0.047459375
-0.017263167 0.44212756 0.19027835 -0.4391416 -0.102563545 -0.22431186 -0.117957294 -0.12605031
-0.09350633 0.21324366 -0.12759657 -0.09302123 -0.15637255 0.1488098 0.0057582324 -0.017631473
-0.06434095 0.033675425 -0.13507403 -0.12170428 -0.04746172 -0.0974282 -0.3001252 -0.37075484
-0.456662 -0.24221079 -0.168849 -0.32135773 0.016080603 0.5163641 -0.38206634 -0.06765011
-0.5770263 0.23712482 0.15726885 -0.01652941 -0.037132427 0.24644834 0.27875358 -0.08104008
0.24794532 -0.21794689 -0.63087887 -0.018323123 0.4073823 -0.2114378 0.08425536 -0.3322153
-0.1598811 -0.06589456 0.294473 -0.09686975 -0.5224053 -0.100831635 0.16750723 0.37358567
0.45771632 -0.104991056 -0.01350736 0.21169114 0.02174052 0.36321488 -0.20907097 0.116309926

linear2.bias f4 [3]
00000000: 682e 0b3e b0c0 42bc 26d1 ef3b
0.13591921 -0.011886761 0.0073186336
