demos/snek_net_demo/model/model.pth (torch, 20288 bytes, 4 tensors)

linear1.weight f4 [256, 14]
00000000: cd7a 48bf 4d4b 753e 731d 9f3e d48f 643e
00000010: b382 f53b 07a6 153d 9394 883e bbd1 e53c
00000020: bc53 c1be 0ed1 b9bd 3fc9 113d 2e36 aa3e
00000030: c106 873d daee ad3d 150e 2e3d 54cf 363d
00000040: 768d 7e3d a52f 713d 1e44 e4bd cf23 f3bd
00000050: 13a8 40be 0cb9 84be 0203 7a3d 218f 78be
00000060: 7b0a a6be 6ce1 67be b7d8 d0bd ffa7 2bbe
00000070: cca6 ddbe c8b0 393e ef9f 933e 596b 823e
00000080: 4f92 c9be 83ca 5f3d 8d64 dc3d e66e 4bbe
00000090: b772 21bf 2a2b 0e3e d925 a4bd 9dbb 8d3d
000000a0: 0e3e 9b3e cf6a 663d e8fa 55be f776 903e
000000b0: df29 6bbe 855d 8abe e5ce 11bd 9cc5 81be
000000c0: 839d 56bc 7601 0bbe 95c0 68bd 9d1f 0ebe
000000d0: 89cf a0be 3461 c1bd ffb5 3fbd a845 7cbe
000000e0: 0d6b c63e af48 153d 1a2a 88be b3a0 9f3e
000000f0: 8f63 ee3d c40d 983e 678d 063e 8d76 e0be
00000100: cfe9 a8bd 8340 44bd 272a 7ebe 7572 a33d
00000110: ecb7 c5bd cae9 793e 9de7 e53e 1691 0bbd
00000120: 45e2 e0bd 9529 11be b519 13be 6bb4 f1ba
00000130: 3251 8a3c e803 bf3e 0819 8a3e 6679 783e
00000140: 8438 783e 5c96 81be 63f4 f7bd e8b7 95be
00000150: d2f9 5abd d240 a7bd 736c 1cbe 4dcd b0be
00000160: 4b67 87be 24a7 e33d f512 87be 75fb 183e
00000170: bfff 9dbe 459e 163e a860 dbbe 8414 753e
00000180: f4df 9dbe f770 70be d873 87be 146a 043e
00000190: 9ec9 ebbe d188 be3e 0d5b e2be ee3c a33e
000001a0: 2d46 6d3e 0d5f c2bd 3d9e 38bf 9217 163e
000001b0: 20ab aebd 2e31 963e daf0 7abe 0b9e 063e
000001c0: 8c2a e7bd f21d a93e 5dda a03e ae38 19be
000001d0: 7358 a7bd f010 c7bd a973 963c 9e31 aa3e
000001e0: 088e 6c3e b73d bf3e c4b8 743e 5583 9ebd
000001f0: c408 73be d91c 48ba 1886 b2be d95f aebe
00000200: 93c0 f53e f505 13bf 1ee7 5abc d834 a43e
00000210: 7a8d da3d 06f8 35bf 082c 52be e221 6fbe
00000220: ed49 f83d 4188 943e 2e2f 323e 03c2 56be
00000230: d0b5 983d 05d1 91bc 0309 033f c20a 7abe
00000240: 1177 9fbe c2e9 4ebe 1f6e 593e 2380 36bc
00000250: 15aa 9cbd 59ea e23e 1fab 77bd 3224 913b
00000260: b950 14be edcf cebd 5daa af3e 6225 113f
00000270: 1965 a9be c456 7fbe 74ec bd3c 1f80 253e
00000280: df74 2c3d a3de e03d fcb2 ef3d 9679 a33e
00000290: 473e f3bc b57e 103d c2d6 d63b d6a0 dbbc
000002a0: 87ef f7bd 4ef8 2d3e 3bcd f23e b9fb 6cbe
000002b0: c705 8dbe 6c86 42be 546b f2be d411 74be
000002c0: de12 bc3e af0f 5c3e 3bb1 433e 4be9 4e3e
000002d0: daeb 52be 04f3 d3be acb3 f03d f972 293e
000002e0: 00ea ee3e 205e 38be 00a5 02be 6eb9 0abe
000002f0: 3071 eebd 8498 503e 9253 743e fe6d 923e
00000300: c6f6 a93e 384d 7cbd ee6a 07be 82a6 bdbe
00000310: b0ff 66bc 64a2 1c3f eb61 96be 079c babc
00000320: c4f6 9ebe f618 a4be f702 c33e 5600 11bf
00000330: 158c 123e c7df e0be b5a2 943e 27e5 473d
00000340: 1f13 153d 2b2e 473e b213 abbc 6d1a c23d
00000350: 64ed b1bd fbb0 bd3c 69b0 e5bd 56e8 b5be
00000360: bdab a53e 8ffa 65be 3b67 d2bd 4fe0 5bbf
00000370: 9bd0 10be 7989 a33e ad12 9dbe 4d35 c2be
00000380: 7c8b ed3e 6f55 aa3e ef9a 4dbe 5987 96be
00000390: 9774 833d 983f 9cbd b22a 02be 866f f23e
000003a0: 8933 cb3d 34e2 d23e 2507 ab3e d14c 103e
000003b0: bde5 1e3e c369 583d 946e 603c cb4f a23e
000003c0: 773e cc3d 773d 50be 0010 75be cf4b 963e
000003d0: d9a6 a7be 49d2 913e 0269 20be 6f88 8b3e
000003e0: cc3e 473e 4fa7 f6bc 3626 d2bd 405d 933d
000003f0: 9147 afbe 2a59 153f 6c8c b5bd 62e5 2d3e
-0.7831238 0.23954506 0.31077155 0.22320491 0.007492387 0.03653529 0.26675853 0.028054109
-0.37759197 -0.09073077 0.035592314 0.3324446 0.06593085 0.08492823 0.0424939 0.044631317
0.062146626 0.058883328 -0.11145805 -0.11872064 -0.18814115 -0.2592243 0.061038025 -0.2427335
-0.3242987 -0.22644585 -0.10197585 -0.16763304 -0.43291318 0.18133843 0.28832957 0.25472525
-0.39369437 0.05463649 0.10761366 -0.19866523 -0.63065666 0.13883653 -0.08015031 0.0692055
0.3032078 0.056254204 -0.20896494 0.28215763 -0.22965191 -0.27024475 -0.0355977 -0.25346076
-0.013099077 -0.13574776 -0.056824286 -0.13879247 -0.31408337 -0.09442368 -0.046804424 -0.24635947
0.38753548 0.03644627 -0.2659462 0.3117729 0.11640083 0.29698002 0.13139878 -0.43840447
-0.082477205 -0.047913086 -0.24820767 0.07980815 -0.09654221 0.2440559 0.4490327 -0.03407391
-0.109806575 -0.14176019 -0.14365275 -0.001844061 0.01688442 0.37307668 0.26972222 0.2426506
0.24240309 -0.25310028 -0.1210716 -0.29241872 -0.053460903 -0.0816666 -0.15275745 -0.34531632
-0.26445994 0.11115864 -0.2638165 0.14939673 -0.3085918 0.14708813 -0.4284718 0.23933607
-0.30834925 -0.23480593 -0.2645557 0.1293109 -0.4605226 0.37213758 -0.4421009 0.31882423
0.23171301 -0.09490786 -0.7211645 0.14657429 -0.08528733 0.29334396 -0.2450594 0.13146226
-0.11287412 0.3303066 0.31416598 -0.14963028 -0.08171167 -0.097200274 0.018365698 0.3324098
0.23101056 0.37351772 0.23898607 -0.07739893 -0.23733813 -0.0007633693 -0.3486793 -0.340575
0.47998485 -0.57430965 -0.013360767 0.32071567 0.10671516 -0.7108158 -0.20524609 -0.23352769
0.12123475 0.29010203 0.1740081 -0.20972447 0.07456553 -0.017799864 0.51185626 -0.24418166
-0.31145528 -0.20206359 0.21233414 -0.011138949 -0.07649628 0.44319418 -0.06046593 0.0044293636
-0.14483918 -0.100982524 0.34309664 0.56697667 -0.33084944 -0.24935442 0.023184039 0.16162156
0.042103644 0.109799646 0.117040604 0.319287 -0.029692782 0.035277087 0.006556363 -0.026810091
-0.12106233 0.16989252 0.47422203 -0.231429 -0.2754347 -0.1899659 -0.4734751 -0.23834926
0.36733145 0.21490358 0.19110577 0.20206182 -0.20597783 -0.41396344 0.1175302 0.16547765
0.46662903 -0.18004656 -0.12758255 -0.13547298 -0.116426826 0.2037068 0.23860005 0.28599542
0.33196086 -0.06159708 -0.13224384 -0.37041098 -0.014099047 0.6118529 -0.2937158 -0.022779478
-0.31047642 -0.32050294 0.380882 -0.5664114 0.1431125 -0.4392073 0.29030386 0.04880252
0.03639519 0.19451205 -0.020883415 0.094776966 -0.08687857 0.02315568 -0.11215288 -0.3552882
0.32357588 -0.22458862 -0.10273596 -0.8588914 -0.14142077 0.3194082 -0.3067831 -0.3793129
0.4639548 0.33268306 -0.20078634 -0.29400137 0.06418722 -0.07629317 -0.127116 0.4735071
0.09921939 0.41188204 0.33403888 0.14091803 0.15517326 0.052835237 0.013698239 0.31701502
0.09972852 -0.20335947 -0.23931885 0.29354712 -0.32744482 0.28480747 -0.15665057 0.27252528
0.19457549 -0.030109076 -0.102611944 0.071955204 -0.34234288 0.5833918 -0.08864674 0.16982034

linear1.bias f4 [256]
00000000: acfc eb3e cf02 943c c79e a23e d2c4 40be
00000010: 7bcd c7bd f649 143d 73f0 93bd 06be a33e
00000020: 1f08 cdbd 4021 0a3e b461 12be 187b 36be
00000030: e143 e3bd 6474 8abd 7a31 223e 4518 4b3e
00000040: abac 9fbe 329a 1abd fa68 843e 3222 93be
00000050: f25d 4ebe 9eb4 d63d ad47 3b3d 0d3e 53be
00000060: 97b1 cb3d d9b8 093e 9d05 c73b fd6e 373e
00000070: 346f bd3e 8e88 88be 68d7 c13e ba94 94bd
00000080: aa77 a83e aa09 0b3e aaa2 33be c0fe 9a3e
00000090: 0b14 3cbd f0ac 0b3d ea6e 2bbe fa2f 6dbe
000000a0: 4120 3fbd 05e3 20be a1f2 b73d 5040 3a3d
000000b0: ffe9 dbbd f183 5dbe ce30 da3e cdee 11be
000000c0: 270f 9ebc e55a 96be 48ed eabd 987d c4bd
000000d0: 2b3c 4fbe 19b7 0c3e 285d 87bd edd5 e9bd
000000e0: 3c76 7fbe 9823 1dbe 10ea ee3d 100a 18be
000000f0: c0a3 b9be 920a cabd 3a6c 963e 2032 b6bd
00000100: 3ecc 1fbe 7ef1 a7be 1a03 d53e 3770 60bc
00000110: 2dc2 e3bb 54ca 18be 3c4f 133e 5d36 ac3e
00000120: e6b6 233d 1412 f4bd 33aa 56bd ca4b 69be
00000130: 1811 623d 7954 0cbe 574f 66bd 8fd8 51be
00000140: df7f 95bd fc85 333c 63c5 6bbd ddf8 98bb
00000150: aa76 32be cdb0 37be 5563 1dbe 2d6e 16be
00000160: b028 cabb f3ab e2bb 716d 14be d5f4 64be
00000170: b1e1 7fbd 01f8 54be 954a a23d ea7c cabd
00000180: c936 7e3e 900c 07be 3c12 d8bc 13fe 25be
00000190: 4eca 26be d2f8 dcbd ffbb 9ebe 136a 31be
000001a0: 21eb f0bd 3fd9 20be 12d2 9a3e c897 253d
000001b0: 8809 b4be fb92 453e 6564 15be a799 ae3d
000001c0: c1dc 30be d70a 67be 89d1 86bd 6786 273e
000001d0: fa6d a23d 4475 46bd c050 10bd 39e1 16be
000001e0: 3dfc 483e b0ff 46be 8f48 3bbd a710 20bc
000001f0: e7ea 31bb 6544 21be 15a0 32be 6e15 2d3d
00000200: 71cd f3bd da24 b0bd 279a dbbc b97c b53c
00000210: c70e f1bc 441a 5cbd ff57 95be a387 de3d
00000220: 8432 7dbe 5e40 803e 30e0 993d 168b 5fbd
00000230: 9d2b a0be c037 14be 0396 2d3d edd2 51be
00000240: 2d1c 55be 1daa 62be 29d6 97bd 7df4 4a3c
00000250: 59d1 5ebe 9b8f 2c3e 53e8 e3bc a833 a73d
00000260: 1d86 73bd 796d 42be 7176 f9be f457 82be
00000270: 8439 18be 7190 83bc b7b7 4fbe c071 78be
00000280: fec5 3bbe f428 21bd e82e 3e3e 85fc 85be
00000290: 8730 9b3d 2149 9bbe 4c34 56be 4ad4 433e
000002a0: eba0 4cbe 81ab 08be ad3d dc3d ee70 3b3e
000002b0: 84b8 f43d 1dbf 063b 6d1d ccbd 8482 6bbe
000002c0: ddea 923e 3617 183d 0621 023d bb15 71be
000002d0: a450 6ebd 1656 9ebe bc4f 5ebb 4076 d2bc
000002e0: e6b9 2bbe 1d3d 7bbe 3873 37bd 30fb 81be
000002f0: 8504 533d feeb 3cbe d5f5 ad3d ca16 6f3d
00000300: 730f 40be c9f0 21bd 08ba b43d c1de a8be
00000310: b24a a03e 5273 08bd 0de7 79bd 0b58 0dbe
00000320: 3ffa 9dbd 1d11 ab3d 39cb 2bbd 397a ef3c
00000330: 5ee2 433d 1360 693d ceba 78bc 1f26 5abd
00000340: 8c1f 06bc a63e ac3d aa47 c5ba 8d1a ba3e
00000350: a5b6 e2bc 9c63 d33d cf2b 38bd d000 513e
00000360: d127 4ebe 6db2 02bd ca36 58bd fb52 d83d
00000370: 12c4 b93c b070 933c a84f 353f f6dc 27be
00000380: 055d a6bd 21cd 073d 5671 b73e 42c6 4bbe
00000390: a97b dabc 55a8 153e f45c b33e 6149 c6bd
000003a0: 2ac2 45be 7ff1 2bbe 1034 9d3e 8acb 3d3e
000003b0: 548d 783d b4f8 603d fa34 c63e 3724 413e
000003c0: 4b14 7bbe 9c2d 8d3e f3c4 3abe af57 2bbe
000003d0: 70a2 1fbe a82f ebbd dceb 9bbd 4e57 183e
000003e0: 2f48 fd3d bcdd 7c3e 3d7c 9ebe caa0 a03b
000003f0: f3ba 8ebe bfe2 94be 8d67 c4bd a598 45be
0.4609121 0.018067745 0.31761762 -0.18825081 -0.09755989 0.036203347 -0.072235964 0.31980914
-0.100113146 0.13489246 -0.14295083 -0.17820394 -0.11096931 -0.06760481 0.15839186 0.19833477
-0.31186423 -0.03774471 0.2586134 -0.28737026 -0.20153025 0.10483669 0.045722652 -0.20629139
0.09945982 0.1344942 0.006073667 0.17913432 0.36998904 -0.26666683 0.37859654 -0.0725493
0.32903796 0.13577905 -0.1754252 0.30272484 -0.045917552 0.034100473 -0.16741529 -0.23162833
-0.04666162 -0.15711601 0.08981825 0.04547149 -0.107379906 -0.21632363 0.4261536 -0.14251252
-0.019294335 -0.29366222 -0.11471039 -0.095942676 -0.20237796 0.13741721 -0.06609565 -0.11417756
-0.24947447 -0.15345609 0.11665738 -0.14847589 -0.36257744 -0.098652974 0.29379445 -0.08896279
-0.15605256 -0.3280143 0.4160393 -0.013698629 -0.006950638 -0.14920932 0.14385694 0.33635226
0.039969347 -0.11917511 -0.05240841 -0.22782817 0.055192083 -0.13704099 -0.056228008 -0.20492767
-0.0729978 0.010957237 -0.05756129 -0.0046683387 -0.17428079 -0.17938538 -0.15369923 -0.14690466
-0.006169401 -0.0069174706 -0.14494874 -0.22359021 -0.062471095 -0.20797731 0.07924382 -0.09887107
0.24825586 -0.13188386 -0.026375882 -0.16210203 -0.1628811 -0.10789646 -0.31002805 -0.1732562
-0.11763597 -0.15707873 0.30238396 0.040427953 -0.35163522 0.1929435 -0.14589079 0.085254006
-0.17271711 -0.22562729 -0.065829344 0.16359864 0.079311326 -0.048451677 -0.03523326 -0.14734353
0.19627471 -0.19433475 -0.045723494 -0.009769595 -0.002714807 -0.15748747 -0.17443879 0.042256765
-0.11904419 -0.08600779 -0.026806904 0.022154199 -0.029425992 -0.053735986 -0.29168698 0.108657144
-0.24726301 0.25049108 0.075134635 -0.054576002 -0.31283274 -0.14474392 0.04237939 -0.20490618
-0.2081153 -0.22135206 -0.07413895 0.012387392 -0.21759547 0.16851656 -0.027820742 0.081641495
-0.059454072 -0.18987073 -0.48723176 -0.25457728 -0.1486569 -0.016060086 -0.20284925 -0.24262142
-0.18337247 -0.039345697 0.18572581 -0.2616922 0.07577615 -0.3032923 -0.20918387 0.1912395
-0.1998326 -0.13346674 0.10753951 0.18304798 0.11949256 0.002056069 -0.0996655 -0.22999007
0.2869481 0.03713151 0.031769775 -0.23543446 -0.058182374 -0.30925053 -0.0033922037 -0.025691152
-0.16770133 -0.24535032 -0.044787616 -0.25386953 0.051517982 -0.18449399 0.08494154 0.058371343
-0.18755893 -0.03953627 0.08824545 -0.32982448 0.31306988 -0.033313103 -0.061011363 -0.13803117
-0.07713746 0.083528735 -0.041941855 0.029233085 0.047823302 0.05697639 -0.015181256 -0.05325901
-0.008186232 0.08410387 -0.0015051265 0.36348382 -0.027674982 0.10321733 -0.044963654 0.20410466
-0.20132376 -0.03190844 -0.052786626 0.10562702 0.022676501 0.01799807 0.7082467 -0.16392884
-0.08123211 0.03315461 0.35828656 -0.19899848 -0.026670294 0.14614995 0.35031855 -0.09681965
-0.19312349 -0.16791342 0.30703783 0.18534675 0.060681656 0.05492468 0.38712293 0.18861471
-0.2451946 0.2757386 -0.18239193 -0.16732667 -0.15589309 -0.11483699 -0.07613346 0.14877054
0.123672836 0.2469396 -0.3095416 0.00490198 -0.27877006 -0.29079244 -0.09590063 -0.1929651

linear2.weight f4 [3, 256]
00000000: 63e4 093f 988b e13c b4fd 8f3e 3225 69bc
00000010: 23af 2d3d a4f4 60be 00a5 313e dcb6 dd3e
00000020: fee8 8abd 95fd c53e 285f 54bd c19a 9ebd
00000030: 68b0 c9bd 32aa 96bd bfff 853e e572 8d3e
00000040: 4be3 94be ce54 7a3d 1b1b 9f3e efbf 9abc
00000050: a126 ecbe 5439 73be b284 463e 5780 30be
00000060: 5863 173e 9264 903d 8f1a 41bd e0b1 ba3d
00000070: b684 1a3f 3a6a 09bd 1487 073f 1f3b 76be
00000080: 6ebd dd3e e91b 123e cc29 34be a77e 313d
00000090: 708f ab3e 19b1 21bf 6f70 a0bc 010a 78be
000000a0: c7d6 1abc 993f cbbd 24d5 a33e b9a3 393e
000000b0: 16c1 1bbf efa2 8dbe edb3 213f 55b8 14bf
000000c0: 81e0 25be 980c c6be eac3 263d 0c70 84be
000000d0: 5944 2bbc 1ce3 b53e 8fe1 95be d1e7 a3bd
000000e0: d5ce 163d d6c1 b6bb 0dd1 bfbe a509 153e
000000f0: 52c2 44ba adc8 3f3e 35fa 303e f208 e1bc
00000100: 2f86 2c3d 9dcf 0c3e 49b1 563e beb6 f3bd
00000110: 0520 53bf 1e14 65be bd9c e43e dbfe 903e
00000120: aded 60be 4dc2 46bf 9e5d 873e 73d3 fd3c
00000130: ae9a d83e b098 8f3e d160 bb3e e8b9 3cbc
00000140: 3eaf 9abe c4be b3bc e312 afbd 01b7 c83b
00000150: 48c2 943c 473b 8bbe cb28 223e 1916 8c3c
00000160: 8d32 b3bd 2fed 01bd e62f d1be c4e5 cbbe
00000170: ce62 57be d72a 0abd 0c7a 87bd 2ebc cc3b
00000180: b0d2 653e 2630 6bbe c75a 0abd bf2d 88be
00000190: 8e17 3f3d c739 f8bc 9e2b 243d 27e3 d3be
000001a0: ba13 78be 9542 a43e 3f91 8a3e fb15 b93e
000001b0: b591 d6bc 5f76 133e 848a 1ebe 5c94 263e
000001c0: 5df0 d73d 6f69 0fbe b630 b3bd 7a92 913e
000001d0: e1c7 13bf 9892 1d3f 067c 4dbe bbf2 92ba
000001e0: e80e cb3e e636 d7be 195d 9c3c 4089 1bbd
000001f0: d335 3d3e 1589 19bd d2c2 3ebf a731 cebc
00000200: 3074 813c ac3c 5cbe 29cf c2be dcb6 b8bd
00000210: fc20 7dbe 5c16 b7bd 95b6 bf3b 8cb4 83be
00000220: 16c8 6cbe aef9 c33d 6e6e 9fbd 6206 b3bc
00000230: 7048 8bbe 2163 fc3d 6cd3 cabe ee2f 83be
00000240: bc81 1cbd fd3d c0be 4af5 bbba f748 b43e
00000250: e182 c6be f3be 0dbd ecb7 5a3e dc54 af3e
00000260: 4904 a83e 530f 73be 9ac5 673c dc45 c5bc
00000270: 94bc 93be b38e c2be f7f7 fd3d 7b23 e23e
00000280: c073 f5bd 31a1 1f3e ae1d f33d b51c 3fbe
00000290: 2310 9ebd eb0d 4e3d d483 db3c 94f8 953d
000002a0: 506f 9cbb 682d 0bbf 8afb 883b e651 333e
000002b0: 577f 9fbe 60a5 6dbb 4645 17bf 0393 b23d
000002c0: 770f f53d 3983 813d c058 15bc 3422 53bf
000002d0: c84b 673c 555f 93be b29a 0c3e 5828 e7be
000002e0: a902 1f3c 6636 93bc bc9f a8be f536 c63c
000002f0: ce90 6e3d a1b8 42bd 2a45 34be 1813 86be
00000300: af65 bfbe 23bc dabd 4062 c13d 2a23 bfbe
00000310: 0e74 233e 7135 d33c a13a 97bd adeb 11be
00000320: 1222 b93c 825d 7fbd 795d 303d 8044 03bf
00000330: efb4 ea3d 3f93 d9be 3773 0a3f 1100 b3bc
00000340: 6d7f 1f3b 7405 81bd 4933 9b3e 3322 db3e
00000350: 07cc a6be 2f83 9d3d b3ad 47be f4ab 80bd
00000360: de83 1bbe da2f 59bd d7cf 88bc 16de be3e
00000370: c0d5 6a3d f9f7 963e 58c6 d53e e873 d6be
00000380: 232b 13bf 1558 a9be 03a9 d73e 386a 23be
00000390: 425a 923e a2c3 973d 17b3 fc3e 9c03 1abf
000003a0: 6dc2 2cbe d7eb afbe 106f b73e 4abf a23d
000003b0: 63a3 c9be 3aad c8be d6c0 bf3e 2960 783e
000003c0: 3ad3 9cbd 0515 b73e 4d01 653e addf 433e
000003d0: 8038 b1be b05f 99be 6cdb d63d 9453 b2bd
000003e0: 3904 cd3e c767 ef3e d1ca 393d de04 9c3e
000003f0: a39f 9f3c ee9d 293c a46e 8abd db76 de3e
0.53864115 0.027532384 0.28123248 -0.014230059 0.04240335 -0.21968323 0.17348099 0.43303573
-0.06782721 0.3867003 -0.05184856 -0.07744361 -0.098481 -0.07356681 0.2617168 0.2762672
-0.2907966 0.061116032 0.31075367 -0.01889035 -0.46123222 -0.23752338 0.19386557 -0.17236458
0.1478399 0.07050432 -0.04714447 0.09115958 0.6035875 -0.03354857 0.5294049 -0.2404599
0.43308586 0.1426846 -0.17594069 0.043333676 0.33507872 -0.63160855 -0.019584863 -0.24222566
-0.009450621 -0.0992424 0.3199855 0.18128861 -0.608415 -0.2766337 0.6316517 -0.5809377
-0.16198923 -0.38681483 0.040714182 -0.25866735 -0.010453307 0.35524833 -0.2927365 -0.080032
0.036818344 -0.0055773063 -0.3746418 0.1455446 -0.00075057626 0.18728895 0.17282946 -0.027470086
0.042120155 0.13751073 0.20966066 -0.1190009 -0.8247073 -0.22370955 0.44650832 0.2831944
-0.21965666 -0.7764023 0.26438612 0.030984616 0.4230551 0.2804618 0.36597303 -0.011518933
-0.30211824 -0.02194155 -0.08548524 0.0061253314 0.018159047 -0.27193663 0.15835874 0.01710038
-0.08749876 -0.031720337 -0.40856856 -0.39823735 -0.21033785 -0.03373226 -0.066150755 0.0062480187
0.22443652 -0.22967586 -0.03377798 -0.26597401 0.046653323 -0.030300988 0.04008066 -0.4138424
-0.24226275 0.32082048 0.2706394 0.36149582 -0.026192525 0.14400624 -0.15482527 0.16267532
0.105438925 -0.14005063 -0.08749525 0.28432065 -0.57726866 0.6155181 -0.20066842 -0.0011211255
0.3965981 -0.42034072 0.019087361 -0.03797269 0.18477564 -0.037484247 -0.7451602 -0.02517016
0.015802473 -0.2150752 -0.38048676 -0.09019253 -0.24719614 -0.089398116 0.005850623 -0.25723684
-0.23123202 0.09569107 -0.07784735 -0.02185363 -0.27203703 0.12323595 -0.39614427 -0.25622505
-0.03820966 -0.37547293 -0.001434007 0.35211918 -0.38771728 -0.03460593 0.21359223 0.3424443
0.3281577 -0.23736314 0.014146233 -0.024081163 -0.2885481 -0.37999496 0.12400811 0.44167694
-0.11984968 0.15588833 0.11870895 -0.18663295 -0.077179216 0.050306242 0.026796259 0.07322803
-0.0047740117 -0.5436616 0.0041803764 0.1751171 -0.3115184 -0.0036261901 -0.5909008 0.087194465
0.1196584 0.06323857 -0.009115398 -0.82474065 0.014117189 -0.2878367 0.13730887 -0.45147967
0.009705224 -0.017970275 -0.32934368 0.024196127 0.058243565 -0.047539357 -0.17604509 -0.26186442
-0.37382266 -0.106804155 0.09442568 -0.37331516 0.1596224 0.025782319 -0.073842295 -0.1425006
0.022599254 -0.062345035 0.043057892 -0.512764 0.114602916 -0.42495152 0.54082054 -0.021850618
0.0024337426 -0.06299868 0.30312565 0.4279953 -0.32577536 0.07691037 -0.19499855 -0.062827975
-0.15187022 -0.05302415 -0.016700668 0.37278813 0.057332754 0.29486063 0.41752887 -0.41885304
-0.57487696 -0.33075014 0.42121133 -0.15958488 0.28584486 0.07410361 0.49355385 -0.6016176
-0.16871043 -0.3435962 0.3582692 0.07946642 -0.39382467 -0.3919466 0.3745181 0.24255432
-0.07657476 0.35758224 0.22363777 0.19128294 -0.3461342 -0.29955816 0.1049107 -0.087073475
0.40042284 0.46758863 0.045359436 0.30472463 0.0194853 0.010352595 -0.06759384 0.43450055

linear2.bias f4 [3]
00000000: b07e 333e 49f5 0ebd e757 1dbd
0.17528796 -0.03490189 -0.03841391
